…
2023-02-03 11:55:49.051222: I tensorflow/core/common_runtime/pluggable_device/pluggable_device_factory.cc:305] Could not identify NUMA node of platform GPU ID 0, defaulting to 0. Your kernel may not have been built with NUMA support.
2023-02-03 11:55:49.052279: I tensorflow/core/common_runtime/pluggable_device/pluggable_device_factory.cc:271] Created TensorFlow device (/job:localhost/replica:0/task:0/device:GPU:0 with 0 MB memory) -> physical PluggableDevice (device: 0, name: METAL, pci bus id: <undefined>)
Model: "sequential"
_________________________________________________________________
 Layer (type)                Output Shape              Param #
=================================================================
 efficientnetb0 (Functional)  (None, 7, 7, 1280)       4049571

 global_average_pooling2d (G  (None, 1280)             0
 lobalAveragePooling2D)

 dense (Dense)               (None, 128)               163968

 batch_normalization (BatchN  (None, 128)              512
 ormalization)

 dropout (Dropout)           (None, 128)               0

 dense_1 (Dense)             (None, 8)                 1032

=================================================================
Total params: 4,215,083
Trainable params: 165,256
Non-trainable params: 4,049,827
_________________________________________________________________
2023-02-03 11:59:15.334305: W tensorflow/core/platform/profile_utils/cpu_utils.cc:128] Failed to get CPU frequency: 0 Hz
Epoch 1/10
2023-02-03 11:59:17.814681: I tensorflow/core/grappler/optimizers/custom_graph_optimizer_registry.cc:113] Plugin optimizer for device_type GPU is enabled.
…
