…
2023-02-03 13:52:20.573419: I tensorflow/core/common_runtime/pluggable_device/pluggable_device_factory.cc:271] Created TensorFlow device (/job:localhost/replica:0/task:0/device:GPU:0 with 0 MB memory) -> physical PluggableDevice (device: 0, name: METAL, pci bus id: <undefined>)
Metal device set to: Apple M1 Pro

systemMemory: 16.00 GB
maxCacheSize: 5.33 GB

Model: "sequential"
_________________________________________________________________
 Layer (type)                Output Shape              Param #
=================================================================
 resnet50v2 (Functional)     (None, 7, 7, 2048)        23564800

 global_average_pooling2d (G  (None, 2048)             0
 lobalAveragePooling2D)

 dense (Dense)               (None, 128)               262272

 batch_normalization (BatchN  (None, 128)              512
 ormalization)

 dropout (Dropout)           (None, 128)               0

 dense_1 (Dense)             (None, 8)                 1032

=================================================================
Total params: 23,828,616
Trainable params: 263,560
Non-trainable params: 23,565,056
_________________________________________________________________
2023-02-03 13:55:42.621361: W tensorflow/core/platform/profile_utils/cpu_utils.cc:128] Failed to get CPU frequency: 0 Hz
Epoch 1/50
2023-02-03 13:55:44.536707: I tensorflow/core/grappler/optimizers/custom_graph_optimizer_registry.cc:113] Plugin optimizer for device_type GPU is enabled.
…
